{"config": {"output_layers": [["dense_1", 0, 0]], "input_layers": [["input_1", 0, 0], ["input_2", 0, 0]], "layers": [{"config": {"dtype": "float32", "sparse": false, "batch_input_shape": [null, null], "name": "input_1"}, "inbound_nodes": [], "name": "input_1", "class_name": "InputLayer"}, {"config": {"input_length": 20, "embeddings_constraint": null, "trainable": false, "activity_regularizer": null, "input_dim": 40000, "name": "embedding_1", "output_dim": 200, "dtype": "float32", "batch_input_shape": [null, 20], "mask_zero": false, "embeddings_initializer": {"config": {"maxval": 0.05, "minval": -0.05, "seed": null}, "class_name": "RandomUniform"}, "embeddings_regularizer": null}, "inbound_nodes": [[["input_1", 0, 0, {}]]], "name": "embedding_1", "class_name": "Embedding"}, {"config": {"layer": {"config": {"activation": "tanh", "return_state": true, "bias_initializer": {"config": {}, "class_name": "Zeros"}, "dropout": 0.0, "activity_regularizer": null, "recurrent_regularizer": null, "name": "lstm_1", "use_bias": true, "bias_constraint": null, "recurrent_activation": "hard_sigmoid", "unit_forget_bias": true, "unroll": false, "implementation": 1, "go_backwards": false, "kernel_initializer": {"config": {"mode": "fan_avg", "distribution": "uniform", "scale": 1.0, "seed": null}, "class_name": "VarianceScaling"}, "kernel_constraint": null, "kernel_regularizer": null, "recurrent_dropout": 0.0, "trainable": true, "stateful": false, "bias_regularizer": null, "return_sequences": false, "recurrent_initializer": {"config": {"gain": 1.0, "seed": null}, "class_name": "Orthogonal"}, "recurrent_constraint": null, "units": 400}, "class_name": "LSTM"}, "merge_mode": "concat", "name": "bidirectional_1", "trainable": true}, "inbound_nodes": [[["embedding_1", 0, 0, {}]]], "name": "bidirectional_1", "class_name": "Bidirectional"}, {"config": {"dtype": "float32", "sparse": false, "batch_input_shape": [null, null, 4], "name": "input_2"}, "inbound_nodes": [], "name": "input_2", "class_name": "InputLayer"}, {"config": {"axis": -1, "name": "concatenate_1", "trainable": true}, "inbound_nodes": [[["bidirectional_1", 0, 1, {}], ["bidirectional_1", 0, 3, {}]]], "name": "concatenate_1", "class_name": "Concatenate"}, {"config": {"axis": -1, "name": "concatenate_2", "trainable": true}, "inbound_nodes": [[["bidirectional_1", 0, 2, {}], ["bidirectional_1", 0, 4, {}]]], "name": "concatenate_2", "class_name": "Concatenate"}, {"config": {"activation": "tanh", "return_state": true, "bias_initializer": {"config": {}, "class_name": "Zeros"}, "dropout": 0.0, "activity_regularizer": null, "recurrent_regularizer": null, "name": "lstm_2", "use_bias": true, "bias_constraint": null, "recurrent_activation": "hard_sigmoid", "unit_forget_bias": true, "unroll": false, "implementation": 1, "go_backwards": false, "kernel_initializer": {"config": {"mode": "fan_avg", "distribution": "uniform", "scale": 1.0, "seed": null}, "class_name": "VarianceScaling"}, "kernel_constraint": null, "kernel_regularizer": null, "recurrent_dropout": 0.0, "trainable": true, "stateful": false, "bias_regularizer": null, "return_sequences": true, "recurrent_initializer": {"config": {"gain": 1.0, "seed": null}, "class_name": "Orthogonal"}, "recurrent_constraint": null, "units": 800}, "inbound_nodes": [[["input_2", 0, 0, {}], ["concatenate_1", 0, 0, {}], ["concatenate_2", 0, 0, {}]]], "name": "lstm_2", "class_name": "LSTM"}, {"config": {"activation": "relu", "kernel_constraint": null, "kernel_regularizer": null, "bias_initializer": {"config": {}, "class_name": "Zeros"}, "trainable": true, "activity_regularizer": null, "name": "dense_1", "bias_regularizer": null, "bias_constraint": null, "use_bias": true, "kernel_initializer": {"config": {"mode": "fan_avg", "distribution": "uniform", "scale": 1.0, "seed": null}, "class_name": "VarianceScaling"}, "units": 4}, "inbound_nodes": [[["lstm_2", 0, 0, {}]]], "name": "dense_1", "class_name": "Dense"}], "name": "model_1"}, "backend": "tensorflow", "keras_version": "2.1.4", "class_name": "Model"}